Dataset info: train samples=200000, val samples=10000
Model info: num_blocks=10, h_dim=128, num_heads=8, dropout=0.1
Training info: 200 epochs (5000 steps) with optimizer=adamw, lr=0.0005, weight_decay=0.1
===============================================================================================
Layer (type:depth-idx)                        Output Shape              Param #
===============================================================================================
PhyloLM                                       [1, 1225]                 --
├─Embedding: 1-1                              [1, 50, 502, 128]         4,224
├─ModuleList: 1-2                             --                        --
│    └─Axial_Transformer: 2-1                 [1, 1225, 502, 128]       --
│    │    └─LayerNorm: 3-1                    [1, 1225, 502, 128]       256
│    │    └─Attention: 3-2                    [1, 502, 1225, 128]       66,048
│    │    └─LayerNorm: 3-3                    [1, 1225, 502, 128]       256
│    │    └─Attention: 3-4                    [1, 1225, 502, 128]       66,048
│    │    └─LayerNorm: 3-5                    [1, 1225, 502, 128]       256
│    │    └─Sequential: 3-6                   [1, 1225, 502, 128]       131,712
│    └─Axial_Transformer: 2-2                 [1, 1225, 502, 128]       --
│    │    └─LayerNorm: 3-7                    [1, 1225, 502, 128]       256
│    │    └─Attention: 3-8                    [1, 502, 1225, 128]       66,048
│    │    └─LayerNorm: 3-9                    [1, 1225, 502, 128]       256
│    │    └─Attention: 3-10                   [1, 1225, 502, 128]       66,048
│    │    └─LayerNorm: 3-11                   [1, 1225, 502, 128]       256
│    │    └─Sequential: 3-12                  [1, 1225, 502, 128]       131,712
│    └─Axial_Transformer: 2-3                 [1, 1225, 502, 128]       --
│    │    └─LayerNorm: 3-13                   [1, 1225, 502, 128]       256
│    │    └─Attention: 3-14                   [1, 502, 1225, 128]       66,048
│    │    └─LayerNorm: 3-15                   [1, 1225, 502, 128]       256
│    │    └─Attention: 3-16                   [1, 1225, 502, 128]       66,048
│    │    └─LayerNorm: 3-17                   [1, 1225, 502, 128]       256
│    │    └─Sequential: 3-18                  [1, 1225, 502, 128]       131,712
│    └─Axial_Transformer: 2-4                 [1, 1225, 502, 128]       --
│    │    └─LayerNorm: 3-19                   [1, 1225, 502, 128]       256
│    │    └─Attention: 3-20                   [1, 502, 1225, 128]       66,048
│    │    └─LayerNorm: 3-21                   [1, 1225, 502, 128]       256
│    │    └─Attention: 3-22                   [1, 1225, 502, 128]       66,048
│    │    └─LayerNorm: 3-23                   [1, 1225, 502, 128]       256
│    │    └─Sequential: 3-24                  [1, 1225, 502, 128]       131,712
│    └─Axial_Transformer: 2-5                 [1, 1225, 502, 128]       --
│    │    └─LayerNorm: 3-25                   [1, 1225, 502, 128]       256
│    │    └─Attention: 3-26                   [1, 502, 1225, 128]       66,048
│    │    └─LayerNorm: 3-27                   [1, 1225, 502, 128]       256
│    │    └─Attention: 3-28                   [1, 1225, 502, 128]       66,048
│    │    └─LayerNorm: 3-29                   [1, 1225, 502, 128]       256
│    │    └─Sequential: 3-30                  [1, 1225, 502, 128]       131,712
│    └─Axial_Transformer: 2-6                 [1, 1225, 502, 128]       --
│    │    └─LayerNorm: 3-31                   [1, 1225, 502, 128]       256
│    │    └─Attention: 3-32                   [1, 502, 1225, 128]       66,048
│    │    └─LayerNorm: 3-33                   [1, 1225, 502, 128]       256
│    │    └─Attention: 3-34                   [1, 1225, 502, 128]       66,048
│    │    └─LayerNorm: 3-35                   [1, 1225, 502, 128]       256
│    │    └─Sequential: 3-36                  [1, 1225, 502, 128]       131,712
│    └─Axial_Transformer: 2-7                 [1, 1225, 502, 128]       --
│    │    └─LayerNorm: 3-37                   [1, 1225, 502, 128]       256
│    │    └─Attention: 3-38                   [1, 502, 1225, 128]       66,048
│    │    └─LayerNorm: 3-39                   [1, 1225, 502, 128]       256
│    │    └─Attention: 3-40                   [1, 1225, 502, 128]       66,048
│    │    └─LayerNorm: 3-41                   [1, 1225, 502, 128]       256
│    │    └─Sequential: 3-42                  [1, 1225, 502, 128]       131,712
│    └─Axial_Transformer: 2-8                 [1, 1225, 502, 128]       --
│    │    └─LayerNorm: 3-43                   [1, 1225, 502, 128]       256
│    │    └─Attention: 3-44                   [1, 502, 1225, 128]       66,048
│    │    └─LayerNorm: 3-45                   [1, 1225, 502, 128]       256
│    │    └─Attention: 3-46                   [1, 1225, 502, 128]       66,048
│    │    └─LayerNorm: 3-47                   [1, 1225, 502, 128]       256
│    │    └─Sequential: 3-48                  [1, 1225, 502, 128]       131,712
│    └─Axial_Transformer: 2-9                 [1, 1225, 502, 128]       --
│    │    └─LayerNorm: 3-49                   [1, 1225, 502, 128]       256
│    │    └─Attention: 3-50                   [1, 502, 1225, 128]       66,048
│    │    └─LayerNorm: 3-51                   [1, 1225, 502, 128]       256
│    │    └─Attention: 3-52                   [1, 1225, 502, 128]       66,048
│    │    └─LayerNorm: 3-53                   [1, 1225, 502, 128]       256
│    │    └─Sequential: 3-54                  [1, 1225, 502, 128]       131,712
│    └─Axial_Transformer: 2-10                [1, 1225, 502, 128]       --
│    │    └─LayerNorm: 3-55                   [1, 1225, 502, 128]       256
│    │    └─Attention: 3-56                   [1, 502, 1225, 128]       66,048
│    │    └─LayerNorm: 3-57                   [1, 1225, 502, 128]       256
│    │    └─Attention: 3-58                   [1, 1225, 502, 128]       66,048
│    │    └─LayerNorm: 3-59                   [1, 1225, 502, 128]       256
│    │    └─Sequential: 3-60                  [1, 1225, 502, 128]       131,712
├─Sequential: 1-3                             [1, 1225, 502, 1]         --
│    └─Linear: 2-11                           [1, 1225, 502, 512]       66,048
│    └─GELU: 2-12                             [1, 1225, 502, 512]       --
│    └─Linear: 2-13                           [1, 1225, 502, 1]         513
├─Linear: 1-4                                 [1, 1225, 1]              503
===============================================================================================
Total params: 2,717,048
Trainable params: 2,717,048
Non-trainable params: 0
Total mult-adds (M): 2.72
===============================================================================================
Input size (MB): 0.20
Forward/backward pass size (MB): 51651.44
Params size (MB): 5.43
Estimated Total Size (MB): 51657.07
===============================================================================================
===============================================================================================
Layer (type:depth-idx)                        Output Shape              Param #
===============================================================================================
PhyloLM                                       [1, 1225]                 --
├─Embedding: 1-1                              [1, 50, 502, 128]         4,224
├─ModuleList: 1-2                             --                        --
│    └─Axial_Transformer: 2-1                 [1, 1225, 502, 128]       --
│    │    └─LayerNorm: 3-1                    [1, 1225, 502, 128]       256
│    │    └─Attention: 3-2                    [1, 502, 1225, 128]       66,048
│    │    └─LayerNorm: 3-3                    [1, 1225, 502, 128]       256
│    │    └─Attention: 3-4                    [1, 1225, 502, 128]       66,048
│    │    └─LayerNorm: 3-5                    [1, 1225, 502, 128]       256
│    │    └─Sequential: 3-6                   [1, 1225, 502, 128]       131,712
│    └─Axial_Transformer: 2-2                 [1, 1225, 502, 128]       --
│    │    └─LayerNorm: 3-7                    [1, 1225, 502, 128]       256
│    │    └─Attention: 3-8                    [1, 502, 1225, 128]       66,048
│    │    └─LayerNorm: 3-9                    [1, 1225, 502, 128]       256
│    │    └─Attention: 3-10                   [1, 1225, 502, 128]       66,048
│    │    └─LayerNorm: 3-11                   [1, 1225, 502, 128]       256
│    │    └─Sequential: 3-12                  [1, 1225, 502, 128]       131,712
│    └─Axial_Transformer: 2-3                 [1, 1225, 502, 128]       --
│    │    └─LayerNorm: 3-13                   [1, 1225, 502, 128]       256
│    │    └─Attention: 3-14                   [1, 502, 1225, 128]       66,048
│    │    └─LayerNorm: 3-15                   [1, 1225, 502, 128]       256
│    │    └─Attention: 3-16                   [1, 1225, 502, 128]       66,048
│    │    └─LayerNorm: 3-17                   [1, 1225, 502, 128]       256
│    │    └─Sequential: 3-18                  [1, 1225, 502, 128]       131,712
│    └─Axial_Transformer: 2-4                 [1, 1225, 502, 128]       --
│    │    └─LayerNorm: 3-19                   [1, 1225, 502, 128]       256
│    │    └─Attention: 3-20                   [1, 502, 1225, 128]       66,048
│    │    └─LayerNorm: 3-21                   [1, 1225, 502, 128]       256
│    │    └─Attention: 3-22                   [1, 1225, 502, 128]       66,048
│    │    └─LayerNorm: 3-23                   [1, 1225, 502, 128]       256
│    │    └─Sequential: 3-24                  [1, 1225, 502, 128]       131,712
│    └─Axial_Transformer: 2-5                 [1, 1225, 502, 128]       --
│    │    └─LayerNorm: 3-25                   [1, 1225, 502, 128]       256
│    │    └─Attention: 3-26                   [1, 502, 1225, 128]       66,048
│    │    └─LayerNorm: 3-27                   [1, 1225, 502, 128]       256
│    │    └─Attention: 3-28                   [1, 1225, 502, 128]       66,048
│    │    └─LayerNorm: 3-29                   [1, 1225, 502, 128]       256
│    │    └─Sequential: 3-30                  [1, 1225, 502, 128]       131,712
│    └─Axial_Transformer: 2-6                 [1, 1225, 502, 128]       --
│    │    └─LayerNorm: 3-31                   [1, 1225, 502, 128]       256
│    │    └─Attention: 3-32                   [1, 502, 1225, 128]       66,048
│    │    └─LayerNorm: 3-33                   [1, 1225, 502, 128]       256
│    │    └─Attention: 3-34                   [1, 1225, 502, 128]       66,048
│    │    └─LayerNorm: 3-35                   [1, 1225, 502, 128]       256
│    │    └─Sequential: 3-36                  [1, 1225, 502, 128]       131,712
│    └─Axial_Transformer: 2-7                 [1, 1225, 502, 128]       --
│    │    └─LayerNorm: 3-37                   [1, 1225, 502, 128]       256
│    │    └─Attention: 3-38                   [1, 502, 1225, 128]       66,048
│    │    └─LayerNorm: 3-39                   [1, 1225, 502, 128]       256
│    │    └─Attention: 3-40                   [1, 1225, 502, 128]       66,048
│    │    └─LayerNorm: 3-41                   [1, 1225, 502, 128]       256
│    │    └─Sequential: 3-42                  [1, 1225, 502, 128]       131,712
│    └─Axial_Transformer: 2-8                 [1, 1225, 502, 128]       --
│    │    └─LayerNorm: 3-43                   [1, 1225, 502, 128]       256
│    │    └─Attention: 3-44                   [1, 502, 1225, 128]       66,048
│    │    └─LayerNorm: 3-45                   [1, 1225, 502, 128]       256
│    │    └─Attention: 3-46                   [1, 1225, 502, 128]       66,048
│    │    └─LayerNorm: 3-47                   [1, 1225, 502, 128]       256
│    │    └─Sequential: 3-48                  [1, 1225, 502, 128]       131,712
│    └─Axial_Transformer: 2-9                 [1, 1225, 502, 128]       --
│    │    └─LayerNorm: 3-49                   [1, 1225, 502, 128]       256
│    │    └─Attention: 3-50                   [1, 502, 1225, 128]       66,048
│    │    └─LayerNorm: 3-51                   [1, 1225, 502, 128]       256
│    │    └─Attention: 3-52                   [1, 1225, 502, 128]       66,048
│    │    └─LayerNorm: 3-53                   [1, 1225, 502, 128]       256
│    │    └─Sequential: 3-54                  [1, 1225, 502, 128]       131,712
│    └─Axial_Transformer: 2-10                [1, 1225, 502, 128]       --
│    │    └─LayerNorm: 3-55                   [1, 1225, 502, 128]       256
│    │    └─Attention: 3-56                   [1, 502, 1225, 128]       66,048
│    │    └─LayerNorm: 3-57                   [1, 1225, 502, 128]       256
│    │    └─Attention: 3-58                   [1, 1225, 502, 128]       66,048
│    │    └─LayerNorm: 3-59                   [1, 1225, 502, 128]       256
│    │    └─Sequential: 3-60                  [1, 1225, 502, 128]       131,712
├─Sequential: 1-3                             [1, 1225, 502, 1]         --
│    └─Linear: 2-11                           [1, 1225, 502, 512]       66,048
│    └─GELU: 2-12                             [1, 1225, 502, 512]       --
│    └─Linear: 2-13                           [1, 1225, 502, 1]         513
├─Linear: 1-4                                 [1, 1225, 1]              503
===============================================================================================
Total params: 2,717,048
Trainable params: 2,717,048
Non-trainable params: 0
Total mult-adds (M): 2.72
===============================================================================================
Input size (MB): 0.20
Forward/backward pass size (MB): 51651.44
Params size (MB): 5.43
Estimated Total Size (MB): 51657.07
…
